checkpoint.pth (torch_old, 54445 bytes, 6 tensors)

fc1.weight f4 [128, 37]
0	0x3bf2cafb	0.007409451
1	0x3e2a105c	0.16607803
2	0xbe6602f5	-0.22462066
3	0x3d4570a5	0.04820313
4	0x3c7cd366	0.015431261
5	0x3cfa6bfb	0.030569067
6	0xbe0eb4fe	-0.1393623
7	0x3e97ac4c	0.2962364
8	0x3dd6b856	0.10484378
9	0x3e878e4e	0.26475757
10	0x3d9f2889	0.07771403
11	0xbda51b35	-0.0806183
12	0xbe3a99e7	-0.18222772
13	0xbd1aa81c	-0.037757978
14	0xbe67defe	-0.22643659
15	0x3e6879e1	0.22702743
16	0xbe062655	-0.1310056
17	0x3d424153	0.04742558
18	0xbe8a0eda	-0.26964456
19	0xbea9e054	-0.3317896
20	0x3cbdf438	0.023187742
21	0x3e0a2a56	0.13492712
22	0x3de9b514	0.11411491
23	0x3e33b003	0.17547612
24	0x3d0fc4b6	0.035099708
25	0x3d9fa71d	0.07795546
26	0x3de11850	0.10990965
27	0xbe0bed20	-0.13664675
28	0xbc39672e	-0.011316104
29	0xbdfda8b8	-0.12385696
30	0xbd49608d	-0.049164344
31	0x3e40b790	0.18820024
32	0xbddf6839	-0.10908551
33	0x3cdea604	0.027178772
34	0xbc49bbb3	-0.012312817
35	0xbdd62545	-0.10456327
36	0xbc8550b9	-0.016273843
37	0x3ec47af5	0.3837506
38	0xbee027ce	-0.4378037
39	0xbeaee446	-0.34158534
40	0xbea9d6fc	-0.33171833
41	0xbfef4e5e	-1.8695791
42	0xbdac00dc	-0.083986014
43	0xbd90521f	-0.07046913
44	0xbdd89921	-0.10576082
45	0xbc4714e8	-0.0121509805
46	0x3d9b2100	0.075746536
47	0xbc560911	-0.013063685
48	0x3d60faae	0.054926567
49	0xbca323fb	-0.019914618
50	0x3d068783	0.032844078
51	0x3c8a794a	0.016903538
52	0x3dbda44a	0.09259851
53	0x3d6b727a	0.05748222
54	0x3d56231d	0.05227958
55	0x3d5ec294	0.054384783
56	0xbd07ffec	-0.03320305
57	0xbdd6c568	-0.10486871
58	0xbd8a4792	-0.06751932
59	0xbde13d63	-0.10998037
60	0xbd63e8d7	-0.055641975
61	0x3cba0934	0.022709467
62	0xbdf03159	-0.11728162
63	0x3dce2268	0.10065156
64	0x3c5d1095	0.013492723
65	0x3d8ad494	0.06778827
66	0x3e85341d	0.26016322
67	0xbd52cba0	-0.051463723
68	0x3cc8685d	0.024463827
69	0x3db4c2fe	0.08826254
70	0x3e130c79	0.14360227
71	0xbc9be65a	-0.019030739
72	0x3cf3c0f6	0.029755097
73	0xbc926dde	-0.017874654
74	0x3e392d54	0.18083698
75	0x3d17b3fc	0.03703688
76	0x3da11fb3	0.07867374
77	0xbe8ad71d	-0.27117243
78	0x3de12623	0.10993602
79	0xbe5b6d40	-0.21428394
80	0xbe261724	-0.16219765
81	0x3e4a8f6b	0.19781272
82	0x3e25a4f6	0.16176209
83	0x3dc2e9b0	0.095172286
84	0xbe1d3f76	-0.1535624
85	0xbe07c987	-0.1326047
86	0x3dd35d8e	0.103205785
87	0xbc44e3da	-0.012017215
88	0x3d9c3a64	0.07628325
89	0xbe19aced	-0.15007372
90	0x3d9cadd7	0.07650345
91	0xbcf3e060	-0.029770076
92	0x3e36aa1c	0.17838329
93	0x3ee39ea7	0.4445698
94	0xbef1dbb6	-0.4723794
95	0x3cf74c52	0.03018776
96	0x3e2f657c	0.17128557
97	0x3ba4b3b0	0.005026303
98	0xbe4d2480	-0.20033455
99	0xbe89d910	-0.26923418
100	0x3e4f706b	0.20257728
101	0x3de16dfc	0.11007306
102	0xbdc67aa9	-0.09691364
103	0x3e1c9964	0.15292889
104	0xbe894bc5	-0.2681562
105	0xbd7b02f5	-0.061282117
106	0x3bee9606	0.007281068
107	0xbe21bc1d	-0.15794416
108	0x3e14db3c	0.14536756
109	0x3aadac5b	0.0013250218
110	0xbca827df	-0.020526825
111	0x3db06bc1	0.086143024
112	0x3dff793b	0.12474295
113	0x3e19f2e6	0.15034065
114	0x3e28eb79	0.16496076
115	0x3d96885f	0.073502295
116	0xbcc27bcf	-0.023740677
117	0x3d68d8be	0.056847326
118	0x3de40215	0.111332096
119	0x3d60e49a	0.05490551
120	0x3d74f150	0.059800446
121	0xbd75296c	-0.059853956
122	0x3d2dfa85	0.042475242
123	0x3ccde4c5	0.0251335
124	0xbcbc5eeb	-0.02299448
125	0x3ca2ec0c	0.019887947
126	0x3e93d3b4	0.28872454
127	0xbf464f2b	-0.7746455
128	0xbf21cff9	-0.63207966
129	0xbe9dd498	-0.3082626
130	0xc0038e7b	-2.0555713
131	0xbc278649	-0.010224887
132	0xbcdbb4e4	-0.026819654
133	0x3d3674a8	0.044544846
134	0x3d8bef7a	0.06832786
135	0x3d72a8ce	0.059243016
136	0x3cfdea4a	0.030995507
137	0x3e06886e	0.13137981
138	0x3d95a068	0.07305986
139	0x3e10d641	0.14144231
140	0x3cd9791a	0.026547004
141	0x3d4b2857	0.049599018
142	0x3e0742d8	0.13209093
143	0x3d9ee038	0.0775761
144	0x3d8a3299	0.06747932
145	0x3cd1210b	0.025528451
146	0x3c6b84e3	0.014374944
147	0xba3caad6	-0.00071970874
148	0xbd5d0246	-0.053957246
149	0xbeadd165	-0.33948818
150	0xbdaf9ce6	-0.08574848
151	0xbe9c2376	-0.30495805
152	0xbe20a1cc	-0.1568672
153	0xbc51232c	-0.012764733
154	0x3e94df31	0.29076532
155	0xbdedf079	-0.11618132
156	0x3e20239c	0.15638584
157	0xbdfe3c13	-0.12413802
158	0x3cd273e4	0.025690027
159	0x3debd5b9	0.11515374
160	0xbe8bd73e	-0.27312654
161	0xbdbd9868	-0.09257585
162	0xbdee375c	-0.11631653
163	0xbcd0c947	-0.025486602
164	0xbdc0b66f	-0.094097964
165	0xbe0388fd	-0.12845226
166	0xbdee8541	-0.1164651
167	0xbe4299a8	-0.19003928
168	0xbd3563f0	-0.04428476
169	0xbeab321e	-0.33436674
170	0x3d1032e3	0.03520478
171	0xbd4365dc	-0.047704563
172	0xbd4d1685	-0.050070304
173	0xbcad476f	-0.021152226
174	0xbe73d3c1	-0.23811246
175	0x3e235be9	0.1595303
176	0x3d7571f3	0.059923124
177	0xbed60ce3	-0.41806707
178	0x3e5158ae	0.20443985
179	0xbe90b572	-0.28263432
180	0x3da00fd1	0.07815517
181	0xbee7b028	-0.45251584
182	0x3f02b487	0.5105671
183	0x3d5ecf91	0.05439717
184	0x3d204c6b	0.039135378
185	0x3d6adb49	0.057338033
186	0xbe52c8ea	-0.20584455
187	0xbca0b770	-0.01961872
188	0x3dbc1575	0.0918378
189	0xbdd54ce8	-0.10415059
190	0x3d74adee	0.059736185
191	0x3e844e78	0.25841117
192	0x3cafa725	0.021442005
193	0x3d2ef88b	0.042717498
194	0xbf0af30d	-0.54277116
195	0xbe968ce3	-0.29404363
196	0x3e48b3e8	0.19599879
197	0x3ddb8a0d	0.107196905
198	0xbe6ca27f	-0.23108862
199	0xbd508065	-0.050903697
200	0x3d9e7cf9	0.077386804
201	0x3e48dc71	0.19615342
202	0xbe07e7ad	-0.13271971
203	0xbed25f88	-0.4108851
204	0xbe21a396	-0.1578506
205	0x3d450c56	0.048107468
206	0x3dea4244	0.114384204
207	0x3e34980a	0.17636123
208	0xbd1ef4f9	-0.038807843
209	0xbe8d84ee	-0.2764048
210	0xbe189813	-0.14901762
211	0x3e70a8ab	0.23501842
212	0x3e1b7b05	0.15183647
213	0xbea75105	-0.32679
214	0xbf3c058a	-0.7344595
215	0x3def3e27	0.116817765
216	0xbcea9e7b	-0.028640023
217	0xbdc1e235	-0.09466974
218	0x3d21a298	0.039461702
219	0xbf0473a2	-0.5173894
220	0x3c14ac14	0.00907423
221	0x3bb67bee	0.005568973
222	0x3d3250b4	0.043533996
223	0x3e005325	0.12531717
224	0xbe0ab3c8	-0.13545144
225	0x3d000f48	0.031264573
226	0x3bc2dbbd	0.005946605
227	0x3ce67302	0.028131012
228	0xbdc8fab3	-0.09813442
229	0xbd160b6e	-0.036631994
230	0xbe38eaad	-0.18058272
231	0xbe543278	-0.20722377
232	0x3d6e6bda	0.058208324
233	0x3de3477b	0.11097618
234	0x3d0ff6d9	0.03514752
235	0x3dcda098	0.100403965
236	0x3dae2659	0.08503408
237	0xbe0b889e	-0.13626334
238	0xbdf7e92d	-0.121050216
239	0x3dc2256f	0.09479796
240	0x3d9627f3	0.073318385
241	0x3e989af4	0.2980572
242	0xbe249389	-0.16071905
243	0x3d45ffe8	0.048339754
244	0x3da938eb	0.08262809
245	0x3dea2644	0.1143308
246	0x3e8473c4	0.25869572
247	0xbd87c190	-0.06628716
248	0xbd05416e	-0.0325331
249	0xbc98e0d5	-0.018661896
250	0xbdb995f7	-0.09061807
251	0xbc3d3a35	-0.011549522
252	0x3ea3a438	0.31961226
253	0xbe8697e0	-0.26287746
254	0xbf0d30c2	-0.55152524
255	0xbeb0cc80	-0.3453102

fc1.bias f4 [128]
0	0x3c452bd8	0.012034379
1	0x3d32e2b0	0.043673217
2	0xbe096ad6	-0.13419661
3	0xbbbd682d	-0.005780241
4	0xbcd2ed76	-0.025747996
5	0xbd280e6b	-0.041029375
6	0x3e0583bf	0.13038538
7	0x3d9fc6fc	0.07801625
8	0xbe52e3c0	-0.20594692
9	0x3e0f65d9	0.14003696
10	0xbde98982	-0.11403181
11	0x3cff46f8	0.03116177
12	0xbd92c3ba	-0.07166238
13	0xbdae09d7	-0.084979706
14	0xbdb73a7f	-0.08946704
15	0xbaa229e6	-0.0012372106
16	0x3a68b3fd	0.0008876918
17	0x3b6413d6	0.0034801862
18	0xbc8b49c8	-0.017002955
19	0xbc22acb3	-0.00992887
20	0xbdebdbbd	-0.11516521
21	0x3db4c7cf	0.08827173
22	0x3e164d6f	0.14677976
23	0xbdceb00c	-0.10092172
24	0x3dc16080	0.09442234
25	0x3d9de1e1	0.077090986
26	0x3e2c4153	0.16821794
27	0xbe0ef73c	-0.139615
28	0xbd444b36	-0.04792329
29	0xbd9cc66f	-0.07655036
30	0x3e265448	0.16243088
31	0x3d9ba97b	0.07600685
32	0xbdc92c47	-0.09822898
33	0xbd16769b	-0.036734205
34	0x3c1e7fb4	0.0096740015
35	0xbe358d15	-0.177296
36	0xbcec5e6f	-0.028853623
37	0x3dcd517c	0.100253075
38	0x3d567ddb	0.05236612
39	0xbd46900a	-0.04847721
40	0x3d70e62d	0.058813263
41	0x3e5b1e62	0.21398309
42	0x3df0597a	0.11735816
43	0x3c84bfe8	0.01620479
44	0x3cc5548a	0.024088163
45	0xbe170433	-0.14747696
46	0x3d0e12bb	0.03468583
47	0xbdc4dfdd	-0.09613011
48	0xbe281131	-0.16412808
49	0x3d8e3ca5	0.06945161
50	0xbb46beb2	-0.0030326066
51	0x3c53dc3e	0.012930928
52	0x3d94e6b4	0.07270566
53	0x3d9f4090	0.07775986
54	0x3d2b98f0	0.0418939
55	0x3d7b8646	0.06140735
56	0xbda266dd	-0.07929776
57	0xbd00c321	-0.03143609
58	0x3db87a80	0.0900774
59	0xbd566b12	-0.052348204
60	0xbe6786d5	-0.22610028
61	0x3d52de18	0.051481336
62	0x38c04ce6	9.169597e-05
63	0xbd9bdeed	-0.07610879
64	0x3d8657ce	0.06559716
65	0x3d46a93b	0.048501235
66	0x3db3c605	0.087780036
67	0x3d0c25d3	0.03421576
68	0xbe636bc2	-0.22209075
69	0xbd9e003a	-0.07714887
70	0x3d2513bb	0.04030202
71	0xbc78eca1	-0.0151931355
72	0x3dea3d7f	0.11437511
73	0xbe0b0a1f	-0.1357808
74	0xbe0a0fdc	-0.13482612
75	0xbc34f192	-0.011043923
76	0x3e5ec12f	0.21753381
77	0xbd8f6f75	-0.070036806
78	0x3da49891	0.08036912
79	0x3d1d2ada	0.038370945
80	0xbce996ca	-0.028514285
81	0x3e18038d	0.14845105
82	0x3d8e5127	0.06949072
83	0xbc41b7fa	-0.011823649
84	0xbd05a7b4	-0.032630637
85	0x3e2f074b	0.17092626
86	0x3dbb19a3	0.09135749
87	0xbd5b18fe	-0.05349063
88	0xbdd837bb	-0.10557505
89	0x3c785dd6	0.015159091
90	0x3d894bb5	0.06703893
91	0xbcb3a092	-0.021927152
92	0xbdaac1ba	-0.08337732
93	0xbe086eeb	-0.13323562
94	0xbda620c1	-0.08111716
95	0x3d1295ce	0.035787396
96	0xbd25da46	-0.040491365
97	0xbe659a07	-0.22422038
98	0xbd92f235	-0.071751036
99	0x3dff8b89	0.12477786
100	0xbdec07ad	-0.115249015
101	0xbe2da30d	-0.1695673
102	0x3e1656e2	0.1468158
103	0x3e08fe45	0.13378246
104	0xbe467fc6	-0.19384679
105	0xbe330463	-0.17482142
106	0xbda2f7c7	-0.07957416
107	0x3e2d125f	0.1690154
108	0xbe20bc66	-0.15696868
109	0xb9935320	-0.00028099958
110	0x3dd021db	0.101627074
111	0xbcd34984	-0.02579189
112	0xbd197b84	-0.03747131
113	0xbdebfe59	-0.11523122
114	0x3cbae63f	0.022814868
115	0x3da1b8b1	0.07896555
116	0x3d9ee26d	0.07758031
117	0x3e2950d8	0.16534746
118	0x3e18ed4a	0.14934269
119	0xbd2a7c97	-0.041622724
120	0xbd2ee65d	-0.04270016
121	0x3c2963e5	0.010338758
122	0xbe0de611	-0.13857295
123	0xbe357f8d	-0.17724438
124	0xbd5a2f00	-0.05326748
125	0x3d8461d9	0.064639755
126	0x3c50faf9	0.012755149
127	0xbd9e3912	-0.07725729

fc2.weight f4 [64, 128]
0	0xbed4f4f2	-0.41593128
1	0xbe87144a	-0.26382667
2	0xbee698c2	-0.4503842
3	0xbcd7aa01	-0.026326181
4	0x3e4af5a4	0.19820267
5	0x3d4f61ab	0.050630253
6	0x3cd08af7	0.025456889
7	0xbd9388d5	-0.07203833
8	0x3dcf13d5	0.101112045
9	0x3da7c088	0.08191019
10	0xbe672237	-0.22571646
11	0x3c710441	0.014710487
12	0xbe7c45d1	-0.24636008
13	0xbec2671a	-0.37969285
14	0xbd46daa2	-0.04854835
15	0x3cf375bd	0.029719228
16	0xbd37074b	-0.04468469
17	0xbdf6456f	-0.12024962
18	0xbc9e6fba	-0.019340385
19	0xbe572e04	-0.21013647
20	0x3e835e75	0.25658002
21	0x3d9da106	0.076967284
22	0xbc1ad401	-0.00944996
23	0xbe4a5b9b	-0.19761507
24	0xbdc9c1b7	-0.09851401
25	0x3c830b45	0.015996585
26	0xbe43647f	-0.19081305
27	0xbe229aae	-0.15879318
28	0xbe7d8396	-0.24757227
29	0xbe3cf489	-0.18452658
30	0xbec461f6	-0.38355988
31	0x3c2bddd6	0.0104899015
32	0x3cc13908	0.023586765
33	0xbe19b497	-0.15010296
34	0xbd87f7d3	-0.066390656
35	0x3a400415	0.0007324827
36	0x3cb553a0	0.022134602
37	0x3d253692	0.040335245
38	0xbf004b02	-0.5011445
39	0xbe954809	-0.2915652
40	0xbe322f61	-0.17400886
41	0xbe626268	-0.22107852
42	0xbe0ecd2e	-0.13945457
43	0x3d1c249c	0.03812085
44	0xbe9e6f4d	-0.3094429
45	0xbe1489df	-0.14505719
46	0xbed0be13	-0.40770015
47	0xbe6b16df	-0.22957943
48	0xbd8bc13f	-0.06823968
49	0xbe582bae	-0.21110412
50	0xbe9aa80b	-0.30206332
51	0x3dba4abb	0.09096285
52	0xbc6e9782	-0.014562489
53	0xbedb17f3	-0.4279171
54	0x3dd35cf7	0.10320466
55	0xbd76049d	-0.060062993
56	0xbd072ea9	-0.033003483
57	0xbd209d4e	-0.039212517
58	0xbe5967c4	-0.2123099
59	0x3dc11456	0.09427707
60	0xbe886037	-0.26635906
61	0x3e5714cd	0.21004029
62	0x3cebb9b1	0.028775068
63	0xbf1e8ef4	-0.6193688
64	0xbebd43ca	-0.3696578
65	0x3d812d77	0.063075
66	0x3e0ad3cd	0.13557358
67	0xbedf85a5	-0.4365665
68	0xbdf3e145	-0.11908201
69	0xbdc78e1b	-0.09743901
70	0xbcc2211b	-0.023697427
71	0xbec5bab4	-0.38619006
72	0xbc9d8dc4	-0.019232638
73	0xbf2373b6	-0.63848436
74	0xbc69de8e	-0.014274253
75	0xbe381d3a	-0.17979899
76	0xbecad511	-0.39615682
77	0xbda322d2	-0.07965626
78	0x3dc862cb	0.09784468
79	0x3dc70a5a	0.09718771
80	0xbebfb1b9	-0.3744028
81	0x3e1f35e1	0.15547897
82	0x3e218548	0.15773499
83	0x3cd20876	0.0256388
84	0xbe42056b	-0.1894738
85	0x3d353a5a	0.0442451
86	0x3e7313ed	0.2373807
87	0xbe409c6e	-0.18809673
88	0xbe51a0ff	-0.20471571
89	0x3dc5e805	0.09663395
90	0xbf222f39	-0.63353306
91	0xbd04f9df	-0.03246486
92	0xbe1b45e2	-0.15163377
93	0xbe7dc955	-0.24783833
94	0x3e710800	0.23538208
95	0xbede430d	-0.4341053
96	0xbdbf4573	-0.09339418
97	0xbe66109a	-0.2246727
98	0xbeb82126	-0.3596279
99	0xbdce51a0	-0.100741625
100	0xbe4c000d	-0.19921894
101	0xbe249f9c	-0.16076511
102	0xbedd3aaa	-0.4320882
103	0xbd25d59f	-0.040486928
104	0xbe125ec6	-0.14293966
105	0xbd9483ab	-0.07251676
106	0x3d46f454	0.048572853
107	0xbe5e545f	-0.21711873
108	0x3d92cf98	0.071685016
109	0xbe66845d	-0.2251143
110	0x3e1247ea	0.14285246
111	0xbe805048	-0.2506125
112	0xbe9699fe	-0.29414362
113	0x3dfff5b6	0.124980375
114	0xbc8dca2b	-0.017308315
115	0xbe810d02	-0.25205237
116	0x3dccb88b	0.09996136
117	0x3a01945e	0.0004943068
118	0xbe19ded1	-0.15026404
119	0xbd73f4ed	-0.05955975
120	0x3ddd834d	0.10816059
121	0x3d874f1a	0.06606884
122	0xbe61cc4f	-0.22050594
123	0xbe3a5123	-0.18195014
124	0xbe7ddce0	-0.24791288
125	0xbe1a5dbf	-0.15074824
126	0x3d2d9877	0.04238173
127	0xbe358d99	-0.17729796
128	0xbe79633f	-0.24354266
129	0xbce3bb4f	-0.027799277
130	0x3c7b2c50	0.015330389
131	0xbe625903	-0.22104268
132	0xbe481696	-0.19539866
133	0xbd6056b8	-0.0547702
134	0x3dba3994	0.090930134
135	0x3b946300	0.0045284033
136	0x3d30ca3f	0.043161627
137	0x3d2919c3	0.041284334
138	0xbd1e0bc9	-0.038585458
139	0xbdbd07a2	-0.092299715
140	0xbc52ed5c	-0.012873974
141	0x3e1adf8f	0.15124343
142	0x3d9c9281	0.07645131
143	0xbec4c0e8	-0.38428426
144	0x3db6d867	0.08927994
145	0xbdd5bc3c	-0.104362935
146	0x3e671c9a	0.22569504
147	0x3e3b4753	0.18288927
148	0x3db2e03e	0.08734177
149	0xbe10ade2	-0.14128831
150	0x3cb1a0f5	0.021683196
151	0xbdb8a21b	-0.09015294
152	0xbd423439	-0.047413085
153	0xbd1c86f3	-0.038214635
154	0xbd6d7a1b	-0.057977777
155	0xbc9b1c42	-0.018934373
156	0x3d7f2d1d	0.062298883
157	0xbe3919cf	-0.18076251
158	0xbdf459ce	-0.119311914
159	0xbe7fc69f	-0.24978112
160	0x3da326f0	0.07966411
161	0xbe8b9a02	-0.27265936
162	0xbdd6d22e	-0.10489307
163	0xbdf77c51	-0.12084258
164	0x3cff5990	0.031170636
165	0x3d5edf60	0.054412246
166	0xbdccaae9	-0.09993536
167	0x3b825090	0.003976889
168	0xbd879436	-0.06620066
169	0x3ce2fcd4	0.027708448
170	0xbe8f9bb0	-0.28048468
171	0x3c3a3778	0.011365764
172	0xbe392d5a	-0.18083706
173	0xbcda567d	-0.026652569
174	0xbe9c72d0	-0.30556345
175	0x3dfd08eb	0.123552166
176	0xbe2b0a52	-0.16703156
177	0x3cc2312c	0.023705088
178	0x3dfc6390	0.123236775
179	0x3dd46698	0.10371131
180	0xbdadf85a	-0.08494635
181	0xbe1f33d9	-0.15547122
182	0xbdacd444	-0.08438924
183	0xbd917214	-0.07101837
184	0xbd06356c	-0.03276579
185	0x3db68008	0.08911139
186	0xbe917c14	-0.28414977
187	0xbd6769cd	-0.056497384
188	0xbd6cf8c4	-0.05785443
189	0xbcaa6842	-0.020801667
190	0xbdff11b3	-0.12454548
191	0x3dca4d22	0.09877993
192	0x3d0d6ccf	0.034527596
193	0x3e248a00	0.16068268
194	0x3da57a62	0.08079983
195	0x3e487c57	0.19578682
196	0xbe546c24	-0.20744377
197	0x3de236a6	0.110455796
198	0xbd6f79f9	-0.05846593
199	0xbe0d8e6e	-0.13823864
200	0x3d01bdd3	0.03167517
201	0x3c144124	0.009048734
202	0x3e4b681c	0.19863933
203	0x3d46f78b	0.04857592
204	0xbcf83ea8	-0.030303314
205	0xbc9fc0e2	-0.019501153
206	0xbd81bc2a	-0.063347176
207	0x3dc68fe4	0.09695414
208	0xbd855523	-0.06510379
209	0x3d00ad0a	0.031415023
210	0xbe1dffa6	-0.15429553
211	0xbd0f1c8e	-0.03493934
212	0xbcc431a1	-0.023949446
213	0x3cd409c9	0.025883572
214	0xbd466478	-0.04843566
215	0xbde4f543	-0.111795925
216	0x3dcf7007	0.101287894
217	0x3cfa899e	0.0305832
218	0x3e2c04c5	0.16798694
219	0xbc12aef2	-0.008952843
220	0xbd5eeb6b	-0.05442373
221	0xbe41ccf1	-0.18925835
222	0x3d4b5c1e	0.049648397
223	0x3d5e40b7	0.054260936
224	0xbde95973	-0.11394014
225	0xbe022ed9	-0.12713183
226	0x3e554e34	0.20830613
227	0xbe385205	-0.18000038
228	0x3dc167c4	0.0944362
229	0x3d5ffa19	0.05468187
230	0x3d9ee26b	0.077580296
231	0x3d1a6db7	0.03770229
232	0xbda93870	-0.08262718
233	0xbc1f3f08	-0.009719618
234	0xbcba1880	-0.02271676
235	0x3d838614	0.06422058
236	0xbd2c6b48	-0.0420945
237	0xbdcba100	-0.09942818
238	0xbc8b8873	-0.017032837
239	0x3ba15696	0.004923652
240	0xbe8651e8	-0.26234365
241	0x3e9f7079	0.31140497
242	0xbc1f07e2	-0.009706469
243	0xbe0cd576	-0.13753304
244	0xbda7bd55	-0.08190409
245	0x3e4f3d80	0.20238304
246	0x3dc71070	0.09719932
247	0xbe24379e	-0.16036841
248	0xbcb4e07d	-0.0220797
249	0xbe5bc6af	-0.2146251
250	0x3c295d67	0.01033721
251	0xbd94c393	-0.07263865
252	0x3e0fd81b	0.14047281
253	0x3dc9d049	0.0985418
254	0x3e43ae13	0.19109373
255	0x3d825b8c	0.063651174

fc2.bias f4 [64]
0	0xbdb93c09	-0.09044654
1	0x3c195f87	0.009361154
2	0x3e5586fb	0.20852272
3	0xbb4025dc	-0.002931944
4	0x3d610b49	0.054942403
5	0xbe2706bd	-0.16311164
6	0xbc289130	-0.010288522
7	0x3d7c0a00	0.061532974
8	0xbc7c2613	-0.015389937
9	0xbe17dc01	-0.14830019
10	0x3cc8e61f	0.024523793
11	0x3e8106f9	0.25200632
12	0xbcd211b0	-0.0256432
13	0x3e412063	0.18860011
14	0x3e8ab4b0	0.2709098
15	0x3c9f501a	0.019447375
16	0x3d5045ed	0.050847936
17	0xbd0da529	-0.034581337
18	0xbe0b4e6b	-0.13604133
19	0xbdab71fa	-0.08371349
20	0xbd89c37a	-0.06726737
21	0x3d514642	0.051092394
22	0x3dc7ce2d	0.09756122
23	0x3d4978d1	0.049187485
24	0xbc8e453c	-0.017366998
25	0x3d14ef77	0.036361184
26	0x3ec99b6b	0.39376387
27	0x3b435594	0.0029805647
28	0x3bdcb201	0.006735087
29	0xbc99c880	-0.018772364
30	0x3ca89854	0.020580448
31	0x3e17e7a9	0.14834465
32	0xbdd01033	-0.1015934
33	0x3ccfe98a	0.025379915
34	0x3d880ecf	0.066434495
35	0xbde0ac4e	-0.109703645
36	0xbce72e33	-0.028220272
37	0xbd2d559f	-0.042317983
38	0x3d7c71ab	0.06163184
39	0x3dab2489	0.08356578
40	0x3c9442a7	0.018098189
41	0x3c80eb7a	0.015737284
42	0x3c8b6718	0.017016932
43	0x3deb1736	0.114790365
44	0x3e8c007e	0.27344126
45	0x3df9a704	0.12190059
46	0xbd83a8e9	-0.064287014
47	0xbdd6f519	-0.104959674
48	0x3d850e91	0.06496919
49	0xbe191a46	-0.14951429
50	0xbd8d4434	-0.06897774
51	0xbdf60640	-0.12012911
52	0xbe144824	-0.14480644
53	0x3d0301dd	0.0319842
54	0x3d4546f4	0.04816337
55	0x3e72f0d1	0.23724677
56	0x3d71d543	0.059041273
57	0x3e8f6305	0.28005233
58	0x3e61a2d2	0.22034767
59	0x3df03b40	0.11730051
60	0xbd97115e	-0.073763594
61	0x3d4be9bd	0.049783457
62	0xbd855d83	-0.065119766
63	0xbdee51c2	-0.11636688

fc3.weight f4 [4, 64]
0	0xbe43cebb	-0.1912183
1	0x3d37820c	0.044801757
2	0x3df3d924	0.11906651
3	0x3e3e4197	0.18579708
4	0xbecc950c	-0.39957464
5	0xbe3bae1f	-0.1832814
6	0x3d34f408	0.04417804
7	0x3ecea07b	0.40356812
8	0x3e81ff18	0.25389934
9	0xbecea4d5	-0.40360132
10	0x3e3409f3	0.1758192
11	0x3e199199	0.14996947
12	0xbc231ab2	-0.009955095
13	0x3e03e9b0	0.12882113
14	0x3e01a378	0.12660015
15	0x3e8dbc2e	0.27682632
16	0xbdc34922	-0.09535433
17	0x3cc7983c	0.024364583
18	0xbdceb488	-0.10093027
19	0x3ecad604	0.39616406
20	0xbe9b9c1b	-0.30392537
21	0x3ef66e46	0.48131007
22	0x3db86143	0.09002926
23	0x3ea346b3	0.31889877
24	0xbe6c2ca2	-0.23063901
25	0xbdce2d32	-0.10067214
26	0x3e2bef02	0.16790393
27	0x3edc6476	0.43045396
28	0x3e390106	0.18066797
29	0xbefa2a6d	-0.48860493
30	0xbcd8abe5	-0.026449153
31	0x3de83f41	0.1134019
32	0x3d0cb6dd	0.03435408
33	0xbe1483ba	-0.14503375
34	0xbcbb06f7	-0.02283047
35	0xbd8dbd6b	-0.06920894
36	0xbe12f724	-0.14352089
37	0x3dba3e61	0.09093929
38	0xbedbb914	-0.4291464
39	0x3e375321	0.17902805
40	0x3c5ec3e4	0.013596509
41	0xbde675d4	-0.11252943
42	0xbe3378b8	-0.1752652
43	0x3d977bfb	0.07396694
44	0x3d233647	0.039846685
45	0x3d56cc9d	0.05244123
46	0x3c7482b9	0.014923745
47	0xbd8e09df	-0.069354765
48	0x3e37c199	0.17944945
49	0xbe5bfa36	-0.21482167
50	0xbe14f8b7	-0.14548002
51	0xbceb6450	-0.028734356
52	0xbe04b817	-0.1296085
53	0x3d9e4951	0.07728828
54	0x3df88649	0.12134988
55	0x3dae6825	0.08515958
56	0xbedd80c7	-0.43262312
57	0x3dfc9185	0.12332443
58	0x3dac68ce	0.084184274
59	0x3e386d58	0.18010461
60	0xbe8e27c7	-0.27764723
61	0x3df80422	0.12110163
62	0x3e61a534	0.22035676
63	0xbe55f9b3	-0.20896034
64	0x3e9d1e7c	0.3068732
65	0x3d94dcdb	0.07268687
66	0x3db0fa04	0.08641437
67	0x3e45c0f4	0.19311887
68	0x3cd474c3	0.025934583
69	0xbe2960f8	-0.16540897
70	0xbeaa43b9	-0.33254793
71	0x3edfc292	0.43703133
72	0x3e188410	0.14894128
73	0x3e971c21	0.29513648
74	0x3cc1e60f	0.02366927
75	0x3df56cc8	0.11983639
76	0x3eedafb2	0.46423107
77	0x3dcd767a	0.10032363
78	0x3e000b3a	0.12504283
79	0x3e9b3829	0.30316284
80	0xbdae25ea	-0.08503325
81	0x3d8a3b49	0.06749589
82	0xbe3236c9	-0.17403711
83	0x3ecdf9c7	0.40229627
84	0xbecd4c27	-0.40097162
85	0x3ea86793	0.3289152
86	0xbd4233a8	-0.047412544
87	0x3e8d487f	0.27594373
88	0xbe40bf67	-0.18823014
89	0xbba1941a	-0.004930985
90	0x3e2c6143	0.16833977
91	0x3ec8e57d	0.39237586
92	0x3ea6dbbd	0.32589522
93	0xbe4919d8	-0.19638765
94	0x3dfe218c	0.12408742
95	0x3d855d91	0.06511987
96	0xbe1030c2	-0.140811
97	0xbebd3832	-0.36956936
98	0xbf0a29ce	-0.5397004
99	0xbbffbb15	-0.0078042843
100	0xbecd56ad	-0.4010519
101	0xbd2f28f1	-0.042763654
102	0x3c8dacac	0.01729425
103	0x3dc52fea	0.096282795
104	0x3dde5ca3	0.10857513
105	0xbdd20b26	-0.10256033
106	0xbe0d0d34	-0.13774568
107	0x3e05d2ae	0.13068649
108	0x3e25e25b	0.16199629
109	0x3d3c7a74	0.046015218
110	0x3c94d1a6	0.018166374
111	0x3dc5e6ff	0.096632
112	0x3e5be5a2	0.21474317
113	0xbe2f1829	-0.1709906
114	0xbce5d966	-0.028057765
115	0xbdb8545d	-0.09000466
116	0xbdb7c0b9	-0.08972306
117	0x3e3a0745	0.18166836
118	0x3e6a5cbe	0.22886941
119	0x3d0cad07	0.0343447
120	0x3df73bec	0.12071976
121	0x3db36f54	0.087614685
122	0x3d065ae5	0.032801528
123	0x3d7764d9	0.06039891
124	0xba83dab3	-0.0010059684
125	0x3dcd3f8a	0.10021885
126	0x3e834513	0.25638637
127	0xbdfe6bf5	-0.12422935
128	0x3ea8edc7	0.3299391
129	0xbe59481e	-0.21218917
130	0x3e3d31ef	0.1847608
131	0x3e9578f3	0.2919384
132	0x3d7a4e6e	0.061109953
133	0xbe34394a	-0.17599979
134	0xbe968734	-0.29400027
135	0x3f1def38	0.61693144
136	0xbf114835	-0.56750804
137	0x3d09808b	0.033569854
138	0x3e8861bd	0.26637068
139	0x3dcb283d	0.09919784
140	0xbe8dfe11	-0.277329
141	0xbcd08934	-0.025456049
142	0x3e0c412f	0.1369674
143	0x3e506ecd	0.20354767
144	0xbeced6cd	-0.40398255
145	0xbd371e06	-0.044706367
146	0x3e97266d	0.29521504
147	0x3e81c0f7	0.25342533
148	0x3e0d78fa	0.1381568
149	0x3e879f1f	0.26488587
150	0x3d9e38ad	0.07725654
151	0x3e6846dd	0.22683282
152	0x3e48f089	0.19623007
153	0x3c77bb77	0.015120379
154	0x3e16e916	0.14737353
155	0x3eefef72	0.4686237
156	0xbe0de151	-0.13855483
157	0xbe8fa128	-0.2805264
158	0x3e6aab7a	0.22916976
159	0x3d026c85	0.031841774
160	0xbeaa0118	-0.3320396
161	0x3ea85893	0.32880077
162	0xbe2276d7	-0.15865646
163	0x3e1279e0	0.14304304
164	0xbce32519	-0.02772765
165	0x3e917788	0.28411508
166	0xbd5042ab	-0.05084483
167	0x3e5bfec3	0.21483903
168	0x3e411f2a	0.18859544
169	0xbe4bbb27	-0.19895612
170	0xbefad9f5	-0.48994413
171	0x3cebddee	0.028792348
172	0x3e2e06f1	0.16994835
173	0x3e9c5703	0.30535135
174	0xbe920367	-0.2851822
175	0xbeec6d8b	-0.46177325
176	0x3d79d054	0.060989693
177	0x3d9845cc	0.07435188
178	0x3d42a80a	0.047523536
179	0x3ed27d03	0.41111
180	0xbe3ffef3	-0.18749599
181	0x3ed44c5d	0.4146451
182	0x3c6709b8	0.014101438
183	0x3d92f736	0.07176058
184	0xbe7993ea	-0.24372831
185	0x3e1a1254	0.15046054
186	0x3d9ae2e7	0.075628094
187	0x3d8d29de	0.06892751
188	0xbe10d8e6	-0.1414524
189	0x3d23d58f	0.039998587
190	0x3e224022	0.15844777
191	0xbed33a04	-0.412552
192	0xbe42026b	-0.18946235
193	0x3cc22c48	0.023702756
194	0x3d9b3c5c	0.07579872
195	0x3eab9a17	0.33516
196	0x3d656254	0.056001976
197	0xbe80fab1	-0.25191262
198	0xbea5f59c	-0.32413948
199	0x3da9f1ca	0.08298071
200	0xbe14fb79	-0.14549054
201	0xbe13e1d8	-0.14441621
202	0x3d1bc181	0.038026337
203	0x3dab1bb4	0.08354893
204	0x3da68382	0.08130552
205	0x3de88ca4	0.1135495
206	0x3e065e2e	0.13121864
207	0x3eb43573	0.3519703
208	0xbe1a100c	-0.15045184
209	0x3e86a1e6	0.26295394
210	0xbed669f8	-0.41877723
211	0x3f218806	0.6309818
212	0x3e25b225	0.16181238
213	0x3e948b86	0.29012698
214	0x3caa438a	0.020784158
215	0x3eab853d	0.3350009
216	0x3de9077b	0.1137838
217	0xbc1f17a0	-0.0097102225
218	0x3e27a56e	0.163717
219	0x3e58c0f1	0.21167351
220	0x3ec3e2ae	0.3825888
221	0x3c6ed80c	0.014577877
222	0xbe02b0bd	-0.12762733
223	0x3e1d2117	0.15344654
224	0xbcd61453	-0.026132738
225	0xbc1941fe	-0.009354113
226	0xbe1eb250	-0.15497708
227	0x3e3324ca	0.17494503
228	0xbe2a0093	-0.16601782
229	0xbe415c05	-0.18882759
230	0xbec76841	-0.38946727
231	0x3e240402	0.16017154
232	0x3e0886c8	0.13332665
233	0xbe12dae9	-0.1434132
234	0xbe1cbb7a	-0.15305892
235	0xbd681c48	-0.056667596
236	0x3e3e9adc	0.18613762
237	0xbeee98c1	-0.46600917
238	0xbde8c09f	-0.113648646
239	0xbc8bcf7a	-0.017066706
240	0xbd9960f0	-0.074891925
241	0xb992657f	-0.0002792291
242	0x3d9a2602	0.07526781
243	0xbe62e9d7	-0.22159515
244	0x3dd893ee	0.1057509
245	0x3bfa01b6	0.0076295985
246	0x3e3d8617	0.18508182
247	0x3dc5fc0e	0.09667216
248	0x3e9c63ff	0.3054504
249	0x3d990932	0.07472457
250	0x3de35bd0	0.11101496
251	0xbce7b658	-0.02828519
252	0xbe49d683	-0.19710736
253	0x3d4a238c	0.049350306
254	0x3e0cc3bc	0.13746542
255	0x3e3f8064	0.18701321

fc3.bias f4 [4]
0	0x3e2fb577	0.17159067
1	0x3e5437a6	0.20724353
2	0x3e73e84f	0.23819087
3	0x3e6fc5d5	0.2341531
